…
first 9 stds: [1.57708084e+05 6.85994711e+01 1.48842657e+00 1.40818362e+02
 9.53370191e+01 1.10522969e+02 8.70785613e-02 1.20098009e-01
 9.42926565e-02]
col means (train, after): [ 2.6513680e-06 -1.8302870e-06  1.9059232e-08  9.6657652e-07
 -6.8071664e-08 -2.3030543e-07  3.4994795e-07 -5.9836225e-09
  1.3456059e-07]
col stds  (train, after): [1.0004609  1.0001613  0.99996907 1.0000308  1.0000384  1.0000551
 1.0002174  0.9999815  0.9999538 ]
MultiTaskEdgeCNN(
  (conv1): EdgeCNN(9, 128, num_layers=1)
  (conv2): EdgeCNN(128, 128, num_layers=1)
  (conv3): EdgeCNN(128, 128, num_layers=1)
  (fc_phys_chem_1): Linear(in_features=128, out_features=128, bias=True)
  (fc_phys_chem_2): Linear(in_features=128, out_features=64, bias=True)
  (fc_phys_chem_3): Linear(in_features=64, out_features=4, bias=True)
  (fc_opt_quant_1): Linear(in_features=128, out_features=128, bias=True)
  (fc_opt_quant_2): Linear(in_features=128, out_features=64, bias=True)
  (fc_opt_quant_3): Linear(in_features=64, out_features=3, bias=True)
  (fc_struc_tox_1): Linear(in_features=128, out_features=64, bias=True)
  (fc_struc_tox_2): Linear(in_features=64, out_features=2, bias=True)
  (fc_other_1): Linear(in_features=128, out_features=64, bias=True)
  (fc_other_2): Linear(in_features=64, out_features=32, bias=True)
  (fc_other_3): Linear(in_features=32, out_features=1, bias=True)
)
Epoch: 001, Train Loss: 1.852462, Test Loss: 1.051466
Epoch: 002, Train Loss: 1.221272, Test Loss: 0.732077
Epoch: 003, Train Loss: 1.046533, Test Loss: 0.696445
Epoch: 004, Train Loss: 0.965906, Test Loss: 0.510736
Epoch: 005, Train Loss: 0.905580, Test Loss: 0.450254
Epoch: 006, Train Loss: 0.852907, Test Loss: 0.545535
Epoch: 007, Train Loss: 0.821118, Test Loss: 0.463194
…
