…
first 9 stds: [1.58462345e+05 6.90901479e+01 1.49689584e+00 1.41870555e+02
 1.00080704e+02 1.15484094e+02 8.75395991e-02 1.20893406e-01
 9.47353015e-02]
col means (train, after): [-2.7431062e-07 -2.6920144e-09  3.6398648e-10 -2.1411097e-08
 -5.4794683e-08 -2.4837573e-07  2.5183289e-07 -1.0682781e-08
  2.3887185e-07]
col stds  (train, after): [0.99959457 1.0002489  0.99999374 1.0000002  0.99988216 1.0001211
 1.0000584  0.9999867  0.9999722 ]
MultiTaskEdgeCNN(
  (conv1): EdgeCNN(9, 128, num_layers=1)
  (conv2): EdgeCNN(128, 128, num_layers=1)
  (conv3): EdgeCNN(128, 128, num_layers=1)
  (fc_phys_chem_1): Linear(in_features=128, out_features=128, bias=True)
  (fc_phys_chem_2): Linear(in_features=128, out_features=64, bias=True)
  (fc_phys_chem_3): Linear(in_features=64, out_features=4, bias=True)
  (fc_opt_quant_1): Linear(in_features=128, out_features=128, bias=True)
  (fc_opt_quant_2): Linear(in_features=128, out_features=64, bias=True)
  (fc_opt_quant_3): Linear(in_features=64, out_features=3, bias=True)
  (fc_struc_tox_1): Linear(in_features=128, out_features=64, bias=True)
  (fc_struc_tox_2): Linear(in_features=64, out_features=2, bias=True)
  (fc_other_1): Linear(in_features=128, out_features=64, bias=True)
  (fc_other_2): Linear(in_features=64, out_features=32, bias=True)
  (fc_other_3): Linear(in_features=32, out_features=1, bias=True)
)
Epoch: 001, Train Loss: 1.866193, Test Loss: 1.117710
Epoch: 002, Train Loss: 1.135501, Test Loss: 0.742435
Epoch: 003, Train Loss: 0.879945, Test Loss: 0.639879
Epoch: 004, Train Loss: 0.783165, Test Loss: 0.573425
Epoch: 005, Train Loss: 0.708907, Test Loss: 0.499106
Epoch: 006, Train Loss: 0.666956, Test Loss: 0.464908
Epoch: 007, Train Loss: 0.641584, Test Loss: 0.462497
…
