…
first 9 stds: [1.58448555e+05 6.90185835e+01 1.49567928e+00 1.41703221e+02
 1.00905908e+02 1.16731763e+02 8.74819767e-02 1.20749499e-01
 9.45794217e-02]
col means (train, after): [ 1.7614678e-07 -4.0804156e-08 -4.2407162e-09 -1.6566287e-07
  7.0236290e-08 -5.3127604e-08  2.3853461e-08 -2.5879010e-09
  1.3350204e-07]
col stds  (train, after): [0.9994523  1.0002475  0.99998707 0.9999251  1.0000004  0.9999128
 0.9995119  0.9999888  0.999976  ]
MultiTaskEdgeCNN(
  (conv1): EdgeCNN(9, 128, num_layers=1)
  (conv2): EdgeCNN(128, 128, num_layers=1)
  (conv3): EdgeCNN(128, 128, num_layers=1)
  (fc_phys_chem_1): Linear(in_features=128, out_features=128, bias=True)
  (fc_phys_chem_2): Linear(in_features=128, out_features=64, bias=True)
  (fc_phys_chem_3): Linear(in_features=64, out_features=4, bias=True)
  (fc_opt_quant_1): Linear(in_features=128, out_features=128, bias=True)
  (fc_opt_quant_2): Linear(in_features=128, out_features=64, bias=True)
  (fc_opt_quant_3): Linear(in_features=64, out_features=3, bias=True)
  (fc_struc_tox_1): Linear(in_features=128, out_features=64, bias=True)
  (fc_struc_tox_2): Linear(in_features=64, out_features=2, bias=True)
  (fc_other_1): Linear(in_features=128, out_features=64, bias=True)
  (fc_other_2): Linear(in_features=64, out_features=32, bias=True)
  (fc_other_3): Linear(in_features=32, out_features=1, bias=True)
)
Epoch: 001, Train Loss: 1.875172, Test Loss: 1.112458
Epoch: 002, Train Loss: 1.179514, Test Loss: 0.708619
Epoch: 003, Train Loss: 0.936659, Test Loss: 0.617049
Epoch: 004, Train Loss: 0.834690, Test Loss: 0.597534
Epoch: 005, Train Loss: 0.772498, Test Loss: 0.576114
Epoch: 006, Train Loss: 0.730117, Test Loss: 0.539806
Epoch: 007, Train Loss: 0.694634, Test Loss: 0.568300
…
