…
first 9 stds: [1.57594752e+05 6.87640103e+01 1.49218632e+00 1.41274421e+02
 1.02927590e+02 1.18454227e+02 8.72579664e-02 1.20140462e-01
 9.42526576e-02]
col means (train, after): [-7.8262764e-07  2.7248038e-08 -4.7119787e-08  2.2813629e-07
  1.5717316e-07  2.0413429e-06 -4.1869319e-07  5.8779439e-09
 -4.4393403e-08]
col stds  (train, after): [1.0005317  1.000095   0.9999716  0.9999455  0.99997103 1.00003
 1.0006007  0.99998415 0.9999758 ]
MultiTaskEdgeCNN(
  (conv1): EdgeCNN(9, 128, num_layers=1)
  (conv2): EdgeCNN(128, 128, num_layers=1)
  (conv3): EdgeCNN(128, 128, num_layers=1)
  (fc_phys_chem_1): Linear(in_features=128, out_features=128, bias=True)
  (fc_phys_chem_2): Linear(in_features=128, out_features=64, bias=True)
  (fc_phys_chem_3): Linear(in_features=64, out_features=4, bias=True)
  (fc_opt_quant_1): Linear(in_features=128, out_features=128, bias=True)
  (fc_opt_quant_2): Linear(in_features=128, out_features=64, bias=True)
  (fc_opt_quant_3): Linear(in_features=64, out_features=3, bias=True)
  (fc_struc_tox_1): Linear(in_features=128, out_features=64, bias=True)
  (fc_struc_tox_2): Linear(in_features=64, out_features=2, bias=True)
  (fc_other_1): Linear(in_features=128, out_features=64, bias=True)
  (fc_other_2): Linear(in_features=64, out_features=32, bias=True)
  (fc_other_3): Linear(in_features=32, out_features=1, bias=True)
)
Epoch: 001, Train Loss: 1.871171, Test Loss: 1.036602
Epoch: 002, Train Loss: 1.242655, Test Loss: 0.673760
Epoch: 003, Train Loss: 1.073768, Test Loss: 0.569941
Epoch: 004, Train Loss: 0.989113, Test Loss: 0.554425
Epoch: 005, Train Loss: 0.967578, Test Loss: 0.848040
Epoch: 006, Train Loss: 0.954192, Test Loss: 0.565320
Epoch: 007, Train Loss: 0.892175, Test Loss: 0.552528
…
