…
first 9 stds: [1.58125134e+05 6.88300393e+01 1.49323282e+00 1.41353833e+02
 1.00895290e+02 1.16322000e+02 8.72990622e-02 1.20493199e-01
 9.46361624e-02]
col means (train, after): [ 1.3266942e-06  4.7203862e-08 -2.1904606e-08 -5.7813730e-07
 -3.8496475e-07  5.6401865e-07  5.2582658e-07 -1.0692737e-08
 -2.0941020e-08]
col stds  (train, after): [1.0005356  1.0002433  0.999985   1.0000061  0.99992776 1.0001645
 1.0003774  0.99998367 0.99997324]
MultiTaskEdgeCNN(
  (conv1): EdgeCNN(9, 128, num_layers=1)
  (conv2): EdgeCNN(128, 128, num_layers=1)
  (conv3): EdgeCNN(128, 128, num_layers=1)
  (fc_phys_chem_1): Linear(in_features=128, out_features=128, bias=True)
  (fc_phys_chem_2): Linear(in_features=128, out_features=64, bias=True)
  (fc_phys_chem_3): Linear(in_features=64, out_features=4, bias=True)
  (fc_opt_quant_1): Linear(in_features=128, out_features=128, bias=True)
  (fc_opt_quant_2): Linear(in_features=128, out_features=64, bias=True)
  (fc_opt_quant_3): Linear(in_features=64, out_features=3, bias=True)
  (fc_struc_tox_1): Linear(in_features=128, out_features=64, bias=True)
  (fc_struc_tox_2): Linear(in_features=64, out_features=2, bias=True)
  (fc_other_1): Linear(in_features=128, out_features=64, bias=True)
  (fc_other_2): Linear(in_features=64, out_features=32, bias=True)
  (fc_other_3): Linear(in_features=32, out_features=1, bias=True)
)
Epoch: 001, Train Loss: 1.855181, Test Loss: 1.007715
Epoch: 002, Train Loss: 1.173634, Test Loss: 0.711348
Epoch: 003, Train Loss: 0.988576, Test Loss: 0.609575
Epoch: 004, Train Loss: 0.908273, Test Loss: 0.624602
Epoch: 005, Train Loss: 0.852251, Test Loss: 0.571467
Epoch: 006, Train Loss: 0.785185, Test Loss: 0.470449
Epoch: 007, Train Loss: 0.778715, Test Loss: 0.428403
…
